…
9946358, 1: 7.972264460799221}\n","Model: \"model\"\n","__________________________________________________________________________________________________\n"," Layer (type)                Output Shape                 Param #   Connected to                  \n","==================================================================================================\n"," input_1 (InputLayer)        [(None, 256, 256, 3)]        0         []                            \n","                                                                                                  \n"," conv2d (Conv2D)             (None, 128, 128, 64)         1728      ['input_1[0][0]']             \n","                                                                                                  \n"," batch_normalization (Batch  (None, 128, 128, 64)         256       ['conv2d[0][0]']              \n"," Normalization)                                                                                   \n","                                                                                                  \n"," activation (Activation)     (None, 128, 128, 64)         0         ['batch_normalization[0][0]'] \n","                                                                                                  \n"," conv2d_1 (Conv2D)           (None, 128, 128, 64)         4096      ['activation[0][0]']          \n","                                                                                                  \n"," batch_normalization_1 (Bat  (None, 128, 128, 64)         256       ['conv2d_1[0][0]']            \n"," chNormalization)                                                                                 \n","                                                                                                  \n"," activation_1 (Activation)   (None, 128, 128, 64)         0         ['batch_normalization_1[0][0]'\n","                                                                    ]                             \n","                                                                                                  \n"," conv2d_2 (Conv2D)           (None, 128, 128, 64)         36864     ['activation_1[0][0]']        \n","                                                                                                  \n"," batch_normalization_2 (Bat  (None, 128, 128, 64)         256       ['conv2d_2[0][0]']            \n"," chNormalization)                                                                                 \n","                                                                                                  \n"," activation_2 (Activation)   (None, 128, 128, 64)         0         ['batch_normalization_2[0][0]'\n","                                                                    ]                             \n","                                                                                                  \n"," conv2d_3 (Conv2D)           (None, 128, 128, 256)        16384     ['activation_2[0][0]']        \n","                                                                                                  \n"," conv2d_4 (Conv2D)           (None, 128, 128, 256)        16384     ['activation[0][0]']          \n","                                                                                                  \n"," batch_normalization_3 (Bat  (None, 128, 128, 256)        1024      ['conv2d_3[0][0]']            \n"," chNormalization)                                                                                 \n","                                                                                                  \n"," batch_normalization_4 (Bat  (None, 128, 128, 256)        1024      ['conv2d_4[0][0]']            \n"," chNormalization)                                                                                 \n","                                                                                                  \n"," add (Add)                   (None, 128, 128, 256)        0         ['batch_normalization_3[0][0]'\n","                                                                    , 'batch_normalization_4[0][0]\n","                                                                    ']                            \n","                                                                                                  \n"," activation_3 (Activation)   (None, 128, 128, 256)        0         ['add[0][0]']                 \n","                                                                                                  \n"," conv2d_5 (Conv2D)           (None, 128, 128, 64)         16384     ['activation_3[0][0]']        \n","                                                                                                  \n"," batch_normalization_5 (Bat  (None, 128, 128, 64)         256       ['conv2d_5[0][0]']            \n"," chNormalization)                                                                                 \n","                                                                                                  \n"," activation_4 (Activation)   (None, 128, 128, 64)         0         ['batch_normalization_5[0][0]'\n","                                                                    ]                             \n","                                                                                                  \n"," conv2d_6 (Conv2D)           (None, 128, 128, 64)         36864     ['activation_4[0][0]']        \n","                                                                                                  \n"," batch_normalization_6 (Bat  (None, 128, 128, 64)         256       ['conv2d_6[0][0]']            \n"," chNormalization)                                                                                 \n","                                                                                                  \n"," activation_5 (Activation)   (None, 128, 128, 64)         0         ['batch_normalization_6[0][0]'\n","                                                                    ]                             \n","                                                                                                  \n"," conv2d_7 (Conv2D)           (None, 128, 128, 256)        16384     ['activation_5[0][0]']        \n","                                                                                                  \n"," batch_normalization_7 (Bat  (None, 128, 128, 256)        1024      ['conv2d_7[0][0]']            \n"," chNormalization)                                                                                 \n","                                                                                                  \n"," add_1 (Add)                 (None, 128, 128, 256)        0         ['batch_normalization_7[0][0]'\n","                                                                    , 'activation_3[0][0]']       \n","                                                                                                  \n"," activation_6 (Activation)   (None, 128, 128, 256)        0         ['add_1[0][0]']               \n","                                                                                                  \n"," conv2d_8 (Conv2D)           (None, 128, 128, 64)         16384     ['activation_6[0][0]']        \n","                                                                                                  \n"," batch_normalization_8 (Bat  (None, 128, 128, 64)         256       ['conv2d_8[0][0]']            \n"," chNormalization)                                                                                 \n","                                                                                                  \n"," activation_7 (Activation)   (None, 128, 128, 64)         0         ['batch_normalization_8[0][0]'\n","                                                                    ]                             \n","                                                                                                  \n"," conv2d_9 (Conv2D)           (None, 128, 128, 64)         36864     ['activation_7[0][0]']        \n","                                                                                                  \n"," batch_normalization_9 (Bat  (None, 128, 128, 64)         256       ['conv2d_9[0][0]']            \n"," chNormalization)                                                                                 \n","                                                                                                  \n"," activation_8 (Activation)   (None, 128, 128, 64)         0         ['batch_normalization_9[0][0]'\n","                                                                    ]                             \n","                                                                                                  \n"," conv2d_10 (Conv2D)          (None, 128, 128, 256)        16384     ['activation_8[0][0]']        \n","                                                                                                  \n"," batch_normalization_10 (Ba  (None, 128, 128, 256)        1024      ['conv2d_10[0][0]']           \n"," tchNormalization)                                                                                \n","                                                                                                  \n"," add_2 (Add)                 (None, 128, 128, 256)        0         ['batch_normalization_10[0][0]\n","                                                                    ',                            \n","                                                                     'activation_6[0][0]']        \n","                                                                                                  \n"," activation_9 (Activation)   (None, 128, 128, 256)        0         ['add_2[0][0]']               \n","                                                                                                  \n"," conv2d_11 (Conv2D)          (None, 128, 128, 64)         16384     ['activation_9[0][0]']        \n","                                                                                                  \n"," batch_normalization_11 (Ba  (None, 128, 128, 64)         256       ['conv2d_11[0][0]']           \n"," tchNormalization)                                                                                \n","                                                                                                  \n"," activation_10 (Activation)  (None, 128, 128, 64)         0         ['batch_normalization_11[0][0]\n","                                                                    ']                            \n","                                                                                                  \n"," conv2d_12 (Conv2D)          (None, 128, 128, 64)         36864     ['activation_10[0][0]']       \n","                                                                                                  \n"," batch_normalization_12 (Ba  (None, 128, 128, 64)         256       ['conv2d_12[0][0]']           \n"," tchNormalization)                                                                                \n","                                                                                                  \n"," activation_11 (Activation)  (None, 128, 128, 64)         0         ['batch_normalization_12[0][0]\n","                                                                    ']                            \n","                                                                                                  \n"," conv2d_13 (Conv2D)          (None, 128, 128, 256)        16384     ['activation_11[0][0]']       \n","                                                                                                  \n"," batch_normalization_13 (Ba  (None, 128, 128, 256)        1024      ['conv2d_13[0][0]']           \n"," tchNormalization)                                                                                \n","                                                                                                  \n"," add_3 (Add)                 (None, 128, 128, 256)        0         ['batch_normalization_13[0][0]\n","                                                                    ',                            \n","                                                                     'activation_9[0][0]']        \n","                                                                                                  \n"," activation_12 (Activation)  (None, 128, 128, 256)        0         ['add_3[0][0]']               \n","                                                                                                  \n"," conv2d_15 (Conv2D)          (None, 64, 64, 64)           147456    ['activation_12[0][0]']       \n","                                                                                                  \n"," batch_normalization_15 (Ba  (None, 64, 64, 64)           256       ['conv2d_15[0][0]']           \n"," tchNormalization)                                                                                \n","                                                                                                  \n"," activation_14 (Activation)  (None, 64, 64, 64)           0         ['batch_normalization_15[0][0]\n","                                                                    ']                            \n","                                                                                                  \n"," conv2d_14 (Conv2D)          (None, 128, 128, 32)         73728     ['activation_12[0][0]']       \n","                                                                                                  \n"," conv2d_24 (Conv2D)          (None, 64, 64, 64)           36864     ['activation_14[0][0]']       \n","                                                                                                  \n"," batch_normalization_14 (Ba  (None, 128, 128, 32)         128       ['conv2d_14[0][0]']           \n"," tchNormalization)                                                                                \n","                                                                                                  \n"," batch_normalization_24 (Ba  (None, 64, 64, 64)           256       ['conv2d_24[0][0]']           \n"," tchNormalization)                                                                                \n","                                                                                                  \n"," activation_13 (Activation)  (None, 128, 128, 32)         0         ['batch_normalization_14[0][0]\n","                                                                    ']                            \n","                                                                                                  \n"," activation_23 (Activation)  (None, 64, 64, 64)           0         ['batch_normalization_24[0][0]\n","                                                                    ']                            \n","                                                                                                  \n"," conv2d_16 (Conv2D)          (None, 128, 128, 32)         9216      ['activation_13[0][0]']       \n","                                                                                                  \n"," conv2d_25 (Conv2D)          (None, 64, 64, 64)           36864     ['activation_23[0][0]']       \n","                                                                                                  \n"," batch_normalization_16 (Ba  (None, 128, 128, 32)         128       ['conv2d_16[0][0]']           \n"," tchNormalization)                                                                                \n","                                                                                                  \n"," batch_normalization_25 (Ba  (None, 64, 64, 64)           256       ['conv2d_25[0][0]']           \n"," tchNormalization)                                                                                \n","                                                                                                  \n"," activation_15 (Activation)  (None, 128, 128, 32)         0         ['batch_normalization_16[0][0]\n","                                                                    ']                            \n","                                                                                                  \n"," add_8 (Add)                 (None, 64, 64, 64)           0         ['batch_normalization_25[0][0]\n","                                                                    ',                            \n","                                                                     'activation_14[0][0]']       \n","                                                                                                  \n"," conv2d_17 (Conv2D)          (None, 128, 128, 32)         9216      ['activation_15[0][0]']       \n","                                                                                                  \n"," activation_24 (Activation)  (None, 64, 64, 64)           0         ['add_8[0][0]']               \n","                                                                                                  \n"," batch_normalization_17 (Ba  (None, 128, 128, 32)         128       ['conv2d_17[0][0]']           \n"," tchNormalization)                                                                                \n","                                                                                                  \n"," conv2d_26 (Conv2D)          (None, 64, 64, 64)           36864     ['activation_24[0][0]']       \n","                                                                                                  \n"," add_4 (Add)                 (None, 128, 128, 32)         0         ['batch_normalization_17[0][0]\n","                                                                    ',                            \n","                                                                     'activation_13[0][0]']       \n","                                                                                                  \n"," batch_normalization_26 (Ba  (None, 64, 64, 64)           256       ['conv2d_26[0][0]']           \n"," tchNormalization)                                                                                \n","                                                                                                  \n"," activation_16 (Activation)  (None, 128, 128, 32)         0         ['add_4[0][0]']               \n","                                                                                                  \n"," activation_25 (Activation)  (None, 64, 64, 64)           0         ['batch_normalization_26[0][0]\n","                                                                    ']                            \n","                                                                                                  \n"," conv2d_18 (Conv2D)          (None, 128, 128, 32)         9216      ['activation_16[0][0]']       \n","                                                                                                  \n"," conv2d_27 (Conv2D)          (None, 64, 64, 64)           36864     ['activation_25[0][0]']       \n","                                                                                                  \n"," batch_normalization_18 (Ba  (None, 128, 128, 32)         128       ['conv2d_18[0][0]']           \n"," tchNormalization)                                                                                \n","                                                                                                  \n"," batch_normalization_27 (Ba  (None, 64, 64, 64)           256       ['conv2d_27[0][0]']           \n"," tchNormalization)                                                                                \n","                                                                                                  \n"," activation_17 (Activation)  (None, 128, 128, 32)         0         ['batch_normalization_18[0][0]\n","                                                                    ']                            \n","                                                                                                  \n"," add_9 (Add)                 (None, 64, 64, 64)           0         ['batch_normalization_27[0][0]\n","                                                                    ',                            \n","                                                                     'activation_24[0][0]']       \n","                                                                                                  \n"," conv2d_19 (Conv2D)          (None, 128, 128, 32)         9216      ['activation_17[0][0]']       \n","                                                                                                  \n"," activation_26 (Activation)  (None, 64, 64, 64)           0         ['add_9[0][0]']               \n","                                                                                                  \n"," batch_normalization_19 (Ba  (None, 128, 128, 32)         128       ['conv2d_19[0][0]']           \n"," tchNormalization)                                                                                \n","                                                                                                  \n"," conv2d_28 (Conv2D)          (None, 64, 64, 64)           36864     ['activation_26[0][0]']       \n","                                                                                                  \n"," add_5 (Add)                 (None, 128, 128, 32)         0         ['batch_normalization_19[0][0]\n","                                                                    ',                            \n","                                                                     'activation_16[0][0]']       \n","                                                                                                  \n"," batch_normalization_28 (Ba  (None, 64, 64, 64)           256       ['conv2d_28[0][0]']           \n"," tchNormalization)                                                                                \n","                                                                                                  \n"," activation_18 (Activation)  (None, 128, 128, 32)         0         ['add_5[0][0]']               \n","                                                                                                  \n"," activation_27 (Activation)  (None, 64, 64, 64)           0         ['batch_normalization_28[0][0]\n","                                                                    ']                            \n","                                                                                                  \n"," conv2d_20 (Conv2D)          (None, 128, 128, 32)         9216      ['activation_18[0][0]']       \n","                                                                                                  \n"," conv2d_29 (Conv2D)          (None, 64, 64, 64)           36864     ['activation_27[0][0]']       \n","                                                                                                  \n"," batch_normalization_20 (Ba  (None, 128, 128, 32)         128       ['conv2d_20[0][0]']           \n"," tchNormalization)                                                                                \n","                                                                                                  \n"," batch_normalization_29 (Ba  (None, 64, 64, 64)           256       ['conv2d_29[0][0]']           \n"," tchNormalization)                                                                                \n","                                                                                                  \n"," activation_19 (Activation)  (None, 128, 128, 32)         0         ['batch_normalization_20[0][0]\n","                                                                    ']                            \n","                                                                                                  \n"," add_10 (Add)                (None, 64, 64, 64)           0         ['batch_normalization_29[0][0]\n","                                                                    ',                            \n","                                                                     'activation_26[0][0]']       \n","                                                                                                  \n"," conv2d_21 (Conv2D)          (None, 128, 128, 32)         9216      ['activation_19[0][0]']       \n","                                                                                                  \n"," activation_28 (Activation)  (None, 64, 64, 64)           0         ['add_10[0][0]']              \n","                                                                                                  \n"," batch_normalization_21 (Ba  (None, 128, 128, 32)         128       ['conv2d_21[0][0]']           \n"," tchNormalization)                                                                                \n","                                                                                                  \n"," conv2d_30 (Conv2D)          (None, 64, 64, 64)           36864     ['activation_28[0][0]']       \n","                                                                                                  \n"," add_6 (Add)                 (None, 128, 128, 32)         0         ['batch_normalization_21[0][0]\n","                                                                    ',                            \n","                                                                     'activation_18[0][0]']       \n","                                                                                                  \n"," batch_normalization_30 (Ba  (None, 64, 64, 64)           256       ['conv2d_30[0][0]']           \n"," tchNormalization)                                                                                \n","                                                                                                  \n"," activation_20 (Activation)  (None, 128, 128, 32)         0         ['add_6[0][0]']               \n","                                                                                                  \n"," activation_29 (Activation)  (None, 64, 64, 64)           0         ['batch_normalization_30[0][0]\n","                                                                    ']                            \n","                                                                                                  \n"," conv2d_22 (Conv2D)          (None, 128, 128, 32)         9216      ['activation_20[0][0]']       \n","                                                                                                  \n"," conv2d_31 (Conv2D)          (None, 64, 64, 64)           36864     ['activation_29[0][0]']       \n","                                                                                                  \n"," batch_normalization_22 (Ba  (None, 128, 128, 32)         128       ['conv2d_22[0][0]']           \n"," tchNormalization)                                                                                \n","                                                                                                  \n"," batch_normalization_31 (Ba  (None, 64, 64, 64)           256       ['conv2d_31[0][0]']           \n"," tchNormalization)                                                                                \n","                                                                                                  \n"," activation_21 (Activation)  (None, 128, 128, 32)         0         ['batch_normalization_22[0][0]\n","                                                                    ']                            \n","                                                                                                  \n"," add_11 (Add)                (None, 64, 64, 64)           0         ['batch_normalization_31[0][0]\n","                                                                    ',                            \n","                                                                     'activation_28[0][0]']       \n","                                                                                                  \n"," conv2d_23 (Conv2D)          (None, 128, 128, 32)         9216      ['activation_21[0][0]']       \n","                                                                                                  \n"," activation_30 (Activation)  (None, 64, 64, 64)           0         ['add_11[0][0]']              \n","                                                                                                  \n"," batch_normalization_23 (Ba  (None, 128, 128, 32)         128       ['conv2d_23[0][0]']           \n"," tchNormalization)                                                                                \n","                                                                                                  \n"," conv2d_32 (Conv2D)          (None, 64, 64, 32)           2048      ['activation_30[0][0]']       \n","                                                                                                  \n"," add_7 (Add)                 (None, 128, 128, 32)         0         ['batch_normalization_23[0][0]\n","                                                                    ',                            \n","                                                                     'activation_20[0][0]']       \n","                                                                                                  \n"," batch_normalization_32 (Ba  (None, 64, 64, 32)           128       ['conv2d_32[0][0]']           \n"," tchNormalization)                                                                                \n","                                                                                                  \n"," activation_22 (Activation)  (None, 128, 128, 32)         0         ['add_7[0][0]']               \n","                                                                                                  \n"," up_sampling2d (UpSampling2  (None, 128, 128, 32)         0         ['batch_normalization_32[0][0]\n"," D)                                                                 ']                            \n","                                                                                                  \n"," add_12 (Add)                (None, 128, 128, 32)         0         ['activation_22[0][0]',       \n","                                                                     'up_sampling2d[0][0]']       \n","                                                                                                  \n"," conv2d_33 (Conv2D)          (None, 64, 64, 64)           18432     ['activation_22[0][0]']       \n","                                                                                                  \n"," conv2d_34 (Conv2D)          (None, 128, 128, 32)         9216      ['add_12[0][0]']              \n","                                                                                                  \n"," batch_normalization_33 (Ba  (None, 64, 64, 64)           256       ['conv2d_33[0][0]']           \n"," tchNormalization)                                                                                \n","                                                                                                  \n"," batch_normalization_34 (Ba  (None, 128, 128, 32)         128       ['conv2d_34[0][0]']           \n"," tchNormalization)                                                                                \n","                                                                                                  \n"," add_13 (Add)                (None, 64, 64, 64)           0         ['batch_normalization_33[0][0]\n","                                                                    ',                            \n","                                                                     'activation_30[0][0]']       \n","                                                                                                  \n"," activation_31 (Activation)  (None, 128, 128, 32)         0         ['batch_normalization_34[0][0]\n","                                                                    ']                            \n","                                                                                                  \n"," conv2d_36 (Conv2D)          (None, 32, 32, 128)          73728     ['add_13[0][0]']              \n","                                                                                                  \n"," conv2d_37 (Conv2D)          (None, 128, 128, 32)         9216      ['activation_31[0][0]']       \n","                                                                                                  \n"," conv2d_35 (Conv2D)          (None, 64, 64, 64)           36864     ['add_13[0][0]']              \n","                                                                                                  \n"," batch_normalization_36 (Ba  (None, 32, 32, 128)          512       ['conv2d_36[0][0]']           \n"," tchNormalization)                                                                                \n","                                                                                                  \n"," batch_normalization_37 (Ba  (None, 128, 128, 32)         128       ['conv2d_37[0][0]']           \n"," tchNormalization)                                                                                \n","                                                                                                  \n"," batch_normalization_35 (Ba  (None, 64, 64, 64)           256       ['conv2d_35[0][0]']           \n"," tchNormalization)                                                                                \n","                                                                                                  \n"," activation_33 (Activation)  (None, 32, 32, 128)          0         ['batch_normalization_36[0][0]\n","                                                                    ']                            \n","                                                                                                  \n"," activation_34 (Activation)  (None, 128, 128, 32)         0         ['batch_normalization_37[0][0]\n","                                                                    ']                            \n","                                                                                                  \n"," activation_32 (Activation)  (None, 64, 64, 64)           0         ['batch_normalization_35[0][0]\n","                                                                    ']                            \n","                                                                                                  \n"," conv2d_53 (Conv2D)          (None, 32, 32, 128)          147456    ['activation_33[0][0]']       \n","                                                                                                  \n"," conv2d_38 (Conv2D)          (None, 128, 128, 32)         9216      ['activation_34[0][0]']       \n","                                                                                                  \n"," conv2d_45 (Conv2D)          (None, 64, 64, 64)           36864     ['activation_32[0][0]']       \n","                                                                                                  \n"," batch_normalization_53 (Ba  (None, 32, 32, 128)          512       ['conv2d_53[0][0]']           \n"," tchNormalization)                                                                                \n","                                                                                                  \n"," batch_normalization_38 (Ba  (None, 128, 128, 32)         128       ['conv2d_38[0][0]']           \n"," tchNormalization)                                                                                \n","                                                                                                  \n"," batch_normalization_45 (Ba  (None, 64, 64, 64)           256       ['conv2d_45[0][0]']           \n"," tchNormalization)                                                                                \n","                                                                                                  \n"," activation_50 (Activation)  (None, 32, 32, 128)          0         ['batch_normalization_53[0][0]\n","                                                                    ']                            \n","                                                                                                  \n"," add_14 (Add)                (None, 128, 128, 32)         0         ['batch_normalization_38[0][0]\n","                                                                    ',                            \n","                                                                     'activation_31[0][0]']       \n","                                                                                                  \n"," activation_42 (Activation)  (None, 64, 64, 64)           0         ['batch_normalization_45[0][0]\n","                                                                    ']                            \n","                                                                                                  \n"," conv2d_54 (Conv2D)          (None, 32, 32, 128)          147456    ['activation_50[0][0]']       \n","                                                                                                  \n"," activation_35 (Activation)  (None, 128, 128, 32)         0         ['add_14[0][0]']              \n","                                                                                                  \n"," conv2d_46 (Conv2D)          (None, 64, 64, 64)           36864     ['activation_42[0][0]']       \n","                                                                                                  \n"," batch_normalization_54 (Ba  (None, 32, 32, 128)          512       ['conv2d_54[0][0]']           \n"," tchNormalization)                                                                                \n","                                                                                                  \n"," conv2d_39 (Conv2D)          (None, 128, 128, 32)         9216      ['activation_35[0][0]']       \n","                                                                                                  \n"," batch_normalization_46 (Ba  (None, 64, 64, 64)           256       ['conv2d_46[0][0]']           \n"," tchNormalization)                                                                                \n","                                                                                                  \n"," add_22 (Add)                (None, 32, 32, 128)          0         ['batch_normalization_54[0][0]\n","                                                                    ',                            \n","                                                                     'activation_33[0][0]']       \n","                                                                                                  \n"," batch_normalization_39 (Ba  (None, 128, 128, 32)         128       ['conv2d_39[0][0]']           \n"," tchNormalization)                                                                                \n","                                                                                                  \n"," add_18 (Add)                (None, 64, 64, 64)           0         ['batch_normalization_46[0][0]\n","                                                                    ',                            \n","                                                                     'activation_32[0][0]']       \n","                                                                                                  \n"," activation_51 (Activation)  (None, 32, 32, 128)          0         ['add_22[0][0]']              \n","                                                                                                  \n"," activation_36 (Activation)  (None, 128, 128, 32)         0         ['batch_normalization_39[0][0]\n","                                                                    ']                            \n","                                                                                                  \n"," activation_43 (Activation)  (None, 64, 64, 64)           0         ['add_18[0][0]']              \n","                                                                                                  \n"," conv2d_55 (Conv2D)          (None, 32, 32, 128)          147456    ['activation_51[0][0]']       \n","                                                                                                  \n"," conv2d_40 (Conv2D)          (None, 128, 128, 32)         9216      ['activation_36[0][0]']       \n","                                                                                                  \n"," conv2d_47 (Conv2D)          (None, 64, 64, 64)           36864     ['activation_43[0][0]']       \n","                                                                                                  \n"," batch_normalization_55 (Ba  (None, 32, 32, 128)          512       ['conv2d_55[0][0]']           \n"," tchNormalization)                                                                                \n","                                                                                                  \n"," batch_normalization_40 (Ba  (None, 128, 128, 32)         128       ['conv2d_40[0][0]']           \n"," tchNormalization)                                                                                \n","                                                                                                  \n"," batch_normalization_47 (Ba  (None, 64, 64, 64)           256       ['conv2d_47[0][0]']           \n"," tchNormalization)                                                                                \n","                                                                                                  \n"," activation_52 (Activation)  (None, 32, 32, 128)          0         ['batch_normalization_55[0][0]\n","                                                                    ']                            \n","                                                                                                  \n"," add_15 (Add)                (None, 128, 128, 32)         0         ['batch_normalization_40[0][0]\n","                                                                    ',                            \n","                                                                     'activation_35[0][0]']       \n","                                                                                                  \n"," activation_44 (Activation)  (None, 64, 64, 64)           0         ['batch_normalization_47[0][0]\n","                                                                    ']                            \n","                                                                                                  \n"," conv2d_56 (Conv2D)          (None, 32, 32, 128)          147456    ['activation_52[0][0]']       \n","                                                                                                  \n"," activation_37 (Activation)  (None, 128, 128, 32)         0         ['add_15[0][0]']              \n","                                                                                                  \n"," conv2d_48 (Conv2D)          (None, 64, 64, 64)           36864     ['activation_44[0][0]']       \n","                                                                                                  \n"," batch_normalization_56 (Ba  (None, 32, 32, 128)          512       ['conv2d_56[0][0]']           \n"," tchNormalization)                                                                                \n","                                                                                                  \n"," conv2d_41 (Conv2D)          (None, 128, 128, 32)         9216      ['activation_37[0][0]']       \n","                                                                                                  \n"," batch_normalization_48 (Ba  (None, 64, 64, 64)           256       ['conv2d_48[0][0]']           \n"," tchNormalization)                                                                                \n","                                                                                                  \n"," add_23 (Add)                (None, 32, 32, 128)          0         ['batch_normalization_56[0][0]\n","                                                                    ',                            \n","                                                                     'activation_51[0][0]']       \n","                                                                                                  \n"," batch_normalization_41 (Ba  (None, 128, 128, 32)         128       ['conv2d_41[0][0]']           \n"," tchNormalization)                                                                                \n","                                                                                                  \n"," add_19 (Add)                (None, 64, 64, 64)           0         ['batch_normalization_48[0][0]\n","                                                                    ',                            \n","                                                                     'activation_43[0][0]']       \n","                                                                                                  \n"," activation_53 (Activation)  (None, 32, 32, 128)          0         ['add_23[0][0]']              \n","                                                                                                  \n"," activation_38 (Activation)  (None, 128, 128, 32)         0         ['batch_normalization_41[0][0]\n","                                                                    ']                            \n","                                                                                                  \n"," activation_45 (Activation)  (None, 64, 64, 64)           0         ['add_19[0][0]']              \n","                                                                                                  \n"," conv2d_57 (Conv2D)          (None, 32, 32, 128)          147456    ['activation_53[0][0]']       \n","                                                                                                  \n"," conv2d_42 (Conv2D)          (None, 128, 128, 32)         9216      ['activation_38[0][0]']       \n","                                                                                                  \n"," conv2d_49 (Conv2D)          (None, 64, 64, 64)           36864     ['activation_45[0][0]']       \n","                                                                                                  \n"," batch_normalization_57 (Ba  (None, 32, 32, 128)          512       ['conv2d_57[0][0]']           \n"," tchNormalization)                                                                                \n","                                                                                                  \n"," batch_normalization_42 (Ba  (None, 128, 128, 32)         128       ['conv2d_42[0][0]']           \n"," tchNormalization)                                                                                \n","                                                                                                  \n"," batch_normalization_49 (Ba  (None, 64, 64, 64)           256       ['conv2d_49[0][0]']           \n"," tchNormalization)                                                                                \n","                                                                                                  \n"," activation_54 (Activation)  (None, 32, 32, 128)          0         ['batch_normalization_57[0][0]\n","                                                                    ']                            \n","                                                                                                  \n"," add_16 (Add)                (None, 128, 128, 32)         0         ['batch_normalization_42[0][0]\n","                                                                    ',                            \n","                                                                     'activation_37[0][0]']       \n","                                                                                                  \n"," activation_46 (Activation)  (None, 64, 64, 64)           0         ['batch_normalization_49[0][0]\n","                                                                    ']                            \n","                                                                                                  \n"," conv2d_58 (Conv2D)          (None, 32, 32, 128)          147456    ['activation_54[0][0]']       \n","                                                                                                  \n"," activation_39 (Activation)  (None, 128, 128, 32)         0         ['add_16[0][0]']              \n","                                                                                                  \n"," conv2d_50 (Conv2D)          (None, 64, 64, 64)           36864     ['activation_46[0][0]']       \n","                                                                                                  \n"," batch_normalization_58 (Ba  (None, 32, 32, 128)          512       ['conv2d_58[0][0]']           \n"," tchNormalization)                                                                                \n","                                                                                                  \n"," conv2d_43 (Conv2D)          (None, 128, 128, 32)         9216      ['activation_39[0][0]']       \n","                                                                                                  \n"," batch_normalization_50 (Ba  (None, 64, 64, 64)           256       ['conv2d_50[0][0]']           \n"," tchNormalization)                                                                                \n","                                                                                                  \n"," add_24 (Add)                (None, 32, 32, 128)          0         ['batch_normalization_58[0][0]\n","                                                                    ',                            \n","                                                                     'activation_53[0][0]']       \n","                                                                                                  \n"," batch_normalization_43 (Ba  (None, 128, 128, 32)         128       ['conv2d_43[0][0]']           \n"," tchNormalization)                                                                                \n","                                                                                                  \n"," add_20 (Add)                (None, 64, 64, 64)           0         ['batch_normalization_50[0][0]\n","                                                                    ',                            \n","                                                                     'activation_45[0][0]']       \n","                                                                                                  \n"," activation_55 (Activation)  (None, 32, 32, 128)          0         ['add_24[0][0]']              \n","                                                                                                  \n"," activation_40 (Activation)  (None, 128, 128, 32)         0         ['batch_normalization_43[0][0]\n","                                                                    ']                            \n","                                                                                                  \n"," activation_47 (Activation)  (None, 64, 64, 64)           0         ['add_20[0][0]']              \n","                                                                                                  \n"," conv2d_59 (Conv2D)          (None, 32, 32, 128)          147456    ['activation_55[0][0]']       \n","                                                                                                  \n"," conv2d_44 (Conv2D)          (None, 128, 128, 32)         9216      ['activation_40[0][0]']       \n","                                                                                                  \n"," conv2d_51 (Conv2D)          (None, 64, 64, 64)           36864     ['activation_47[0][0]']       \n","                                                                                                  \n"," batch_normalization_59 (Ba  (None, 32, 32, 128)          512       ['conv2d_59[0][0]']           \n"," tchNormalization)                                                                                \n","                                                                                                  \n"," batch_normalization_44 (Ba  (None, 128, 128, 32)         128       ['conv2d_44[0][0]']           \n"," tchNormalization)                                                                                \n","                                                                                                  \n"," batch_normalization_51 (Ba  (None, 64, 64, 64)           256       ['conv2d_51[0][0]']           \n"," tchNormalization)                                                                                \n","                                                                                                  \n"," activation_56 (Activation)  (None, 32, 32, 128)          0         ['batch_normalization_59[0][0]\n","                                                                    ']                            \n","                                                                                                  \n"," add_17 (Add)                (None, 128, 128, 32)         0         ['batch_normalization_44[0][0]\n","                                                                    ',                            \n","                                                                     'activation_39[0][0]']       \n","                                                                                                  \n"," activation_48 (Activation)  (None, 64, 64, 64)           0         ['batch_normalization_51[0][0]\n","                                                                    ']                            \n","                                                                                                  \n"," conv2d_60 (Conv2D)          (None, 32, 32, 128)          147456    ['activation_56[0][0]']       \n","                                                                                                  \n"," activation_41 (Activation)  (None, 128, 128, 32)         0         ['add_17[0][0]']              \n","                                                                                                  \n"," conv2d_52 (Conv2D)          (None, 64, 64, 64)           36864     ['activation_48[0][0]']       \n","                                                                                                  \n"," batch_normalization_60 (Ba  (None, 32, 32, 128)          512       ['conv2d_60[0][0]']           \n"," tchNormalization)                                                                                \n","                                                                                                  \n"," batch_normalization_52 (Ba  (None, 64, 64, 64)           256       ['conv2d_52[0][0]']           \n"," tchNormalization)                                                                                \n","                                                                                                  \n"," add_25 (Add)                (None, 32, 32, 128)          0         ['batch_normalization_60[0][0]\n","                                                                    ',                            \n","                                                                     'activation_55[0][0]']       \n","                                                                                                  \n"," conv2d_65 (Conv2D)          (None, 64, 64, 32)           9216      ['activation_41[0][0]']       \n","                                                                                                  \n"," add_21 (Add)                (None, 64, 64, 64)           0         ['batch_normalization_52[0][0]\n","                                                                    ',                            \n","                                                                     'activation_47[0][0]']       \n","                                                                                                  \n"," activation_57 (Activation)  (None, 32, 32, 128)          0         ['add_25[0][0]']              \n","                                                                                                  \n"," batch_normalization_65 (Ba  (None, 64, 64, 32)           128       ['conv2d_65[0][0]']           \n"," tchNormalization)                                                                                \n","                                                                                                  \n"," activation_49 (Activation)  (None, 64, 64, 64)           0         ['add_21[0][0]']              \n","                                                                                                  \n"," conv2d_64 (Conv2D)          (None, 32, 32, 64)           8192      ['activation_57[0][0]']       \n","                                                                                                  \n"," activation_58 (Activation)  (None, 64, 64, 32)           0         ['batch_normalization_65[0][0]\n","                                                                    ']                            \n","                                                                                                  \n"," conv2d_63 (Conv2D)          (None, 64, 64, 64)           18432     ['activation_41[0][0]']       \n","                                                                                                  \n"," batch_normalization_64 (Ba  (None, 32, 32, 64)           256       ['conv2d_64[0][0]']           \n"," tchNormalization)                                                                                \n","                                                                                                  \n"," conv2d_66 (Conv2D)          (None, 32, 32, 128)          36864     ['activation_58[0][0]']       \n","                                                                                                  \n"," conv2d_67 (Conv2D)          (None, 32, 32, 128)          73728     ['activation_49[0][0]']       \n","                                                                                                  \n"," batch_normalization_63 (Ba  (None, 64, 64, 64)           256       ['conv2d_63[0][0]']           \n"," tchNormalization)                                                                                \n","                                                                                                  \n"," up_sampling2d_3 (UpSamplin  (None, 64, 64, 64)           0         ['batch_normalization_64[0][0]\n"," g2D)                                                               ']                            \n","                                                                                                  \n"," batch_normalization_66 (Ba  (None, 32, 32, 128)          512       ['conv2d_66[0][0]']           \n"," tchNormalization)                                                                                \n","                                                                                                  \n"," batch_normalization_67 (Ba  (None, 32, 32, 128)          512       ['conv2d_67[0][0]']           \n"," tchNormalization)                                                                                \n","                                                                                                  \n"," conv2d_61 (Conv2D)          (None, 64, 64, 32)           2048      ['activation_49[0][0]']       \n","                                                                                                  \n"," conv2d_62 (Conv2D)          (None, 32, 32, 32)           4096      ['activation_57[0][0]']       \n","                                                                                                  \n"," add_27 (Add)                (None, 64, 64, 64)           0         ['batch_normalization_63[0][0]\n","                                                                    ',                            \n","                                                                     'activation_49[0][0]',       \n","                                                                     'up_sampling2d_3[0][0]']     \n","                                                                                                  \n"," add_28 (Add)                (None, 32, 32, 128)          0         ['batch_normalization_66[0][0]\n","                                                                    ',                            \n","                                                                     'batch_normalization_67[0][0]\n","                                                                    ',                            \n","                                                                     'activation_57[0][0]']       \n","                                                                                                  \n"," batch_normalization_61 (Ba  (None, 64, 64, 32)           128       ['conv2d_61[0][0]']           \n"," tchNormalization)                                                                                \n","                                                                                                  \n"," batch_normalization_62 (Ba  (None, 32, 32, 32)           128       ['conv2d_62[0][0]']           \n"," tchNormalization)                                                                                \n","                                                                                                  \n"," conv2d_69 (Conv2D)          (None, 64, 64, 64)           36864     ['add_27[0][0]']              \n","                                                                                                  \n"," conv2d_70 (Conv2D)          (None, 32, 32, 128)          147456    ['add_28[0][0]']              \n","                                                                                                  \n"," conv2d_71 (Conv2D)          (None, 16, 16, 256)          294912    ['add_28[0][0]']              \n","                                                                                                  \n"," up_sampling2d_1 (UpSamplin  (None, 128, 128, 32)         0         ['batch_normalization_61[0][0]\n"," g2D)                                                               ']                            \n","                                                                                                  \n"," up_sampling2d_2 (UpSamplin  (None, 128, 128, 32)         0         ['batch_normalization_62[0][0]\n"," g2D)                                                               ']                            \n","                                                                                                  \n"," batch_normalization_69 (Ba  (None, 64, 64, 64)           256       ['conv2d_69[0][0]']           \n"," tchNormalization)                                                                                \n","                                                                                                  \n"," batch_normalization_70 (Ba  (None, 32, 32, 128)          512       ['conv2d_70[0][0]']           \n"," tchNormalization)                                                                                \n","                                                                                                  \n"," batch_normalization_71 (Ba  (None, 16, 16, 256)          1024      ['conv2d_71[0][0]']           \n"," tchNormalization)                                                                                \n","                                                                                                  \n"," add_26 (Add)                (None, 128, 128, 32)         0         ['activation_41[0][0]',       \n","                                                                     'up_sampling2d_1[0][0]',     \n","                                                                     'up_sampling2d_2[0][0]']     \n","                                                                                                  \n"," activation_60 (Activation)  (None, 64, 64, 64)           0         ['batch_normalization_69[0][0]\n","                                                                    ']                            \n","                                                                                                  \n"," activation_61 (Activation)  (None, 32, 32, 128)          0         ['batch_normalization_70[0][0]\n","                                                                    ']                            \n","                                                                                                  \n"," activation_62 (Activation)  (None, 16, 16, 256)          0         ['batch_normalization_71[0][0]\n","                                                                    ']                            \n","                                                                                                  \n"," conv2d_68 (Conv2D)          (None, 128, 128, 32)         9216      ['add_26[0][0]']              \n","                                                                                                  \n"," conv2d_80 (Conv2D)          (None, 64, 64, 64)           36864     ['activation_60[0][0]']       \n","                                                                                                  \n"," conv2d_88 (Conv2D)          (None, 32, 32, 128)          147456    ['activation_61[0][0]']       \n","                                                                                                  \n"," conv2d_96 (Conv2D)          (None, 16, 16, 256)          589824    ['activation_62[0][0]']       \n","                                                                                                  \n"," batch_normalization_68 (Ba  (None, 128, 128, 32)         128       ['conv2d_68[0][0]']           \n"," tchNormalization)                                                                                \n","                                                                                                  \n"," batch_normalization_80 (Ba  (None, 64, 64, 64)           256       ['conv2d_80[0][0]']           \n"," tchNormalization)                                                                                \n","                                                                                                  \n"," batch_normalization_88 (Ba  (None, 32, 32, 128)          512       ['conv2d_88[0][0]']           \n"," tchNormalization)                                                                                \n","                                                                                                  \n"," batch_normalization_96 (Ba  (None, 16, 16, 256)          1024      ['conv2d_96[0][0]']           \n"," tchNormalization)                                                                                \n","                                                                                                  \n"," activation_59 (Activation)  (None, 128, 128, 32)         0         ['batch_normalization_68[0][0]\n","                                                                    ']                            \n","                                                                                                  \n"," activation_71 (Activation)  (None, 64, 64, 64)           0         ['batch_normalization_80[0][0]\n","                                                                    ']                            \n","                                                                                                  \n"," activation_79 (Activation)  (None, 32, 32, 128)          0         ['batch_normalization_88[0][0]\n","                                                                    ']                            \n","                                                                                                  \n"," activation_87 (Activation)  (None, 16, 16, 256)          0         ['batch_normalization_96[0][0]\n","                                                                    ']                            \n","                                                                                                  \n"," conv2d_72 (Conv2D)          (None, 128, 128, 32)         9216      ['activation_59[0][0]']       \n","                                                                                                  \n"," conv2d_81 (Conv2D)          (None, 64, 64, 64)           36864     ['activation_71[0][0]']       \n","                                                                                                  \n"," conv2d_89 (Conv2D)          (None, 32, 32, 128)          147456    ['activation_79[0][0]']       \n","                                                                                                  \n"," conv2d_97 (Conv2D)          (None, 16, 16, 256)          589824    ['activation_87[0][0]']       \n","                                                                                                  \n"," batch_normalization_72 (Ba  (None, 128, 128, 32)         128       ['conv2d_72[0][0]']           \n"," tchNormalization)                                                                                \n","                                                                                                  \n"," batch_normalization_81 (Ba  (None, 64, 64, 64)           256       ['conv2d_81[0][0]']           \n"," tchNormalization)                                                                                \n","                                                                                                  \n"," batch_normalization_89 (Ba  (None, 32, 32, 128)          512       ['conv2d_89[0][0]']           \n"," tchNormalization)                                                                                \n","                                                                                                  \n"," batch_normalization_97 (Ba  (None, 16, 16, 256)          1024      ['conv2d_97[0][0]']           \n"," tchNormalization)                                                                                \n","                                                                                                  \n"," activation_63 (Activation)  (None, 128, 128, 32)         0         ['batch_normalization_72[0][0]\n","                                                                    ']                            \n","                                                                                                  \n"," add_33 (Add)                (None, 64, 64, 64)           0         ['batch_normalization_81[0][0]\n","                                                                    ',                            \n","                                                                     'activation_60[0][0]']       \n","                                                                                                  \n"," add_37 (Add)                (None, 32, 32, 128)          0         ['batch_normalization_89[0][0]\n","                                                                    ',                            \n","                                                                     'activation_61[0][0]']       \n","                                                                                                  \n"," add_41 (Add)                (None, 16, 16, 256)          0         ['batch_normalization_97[0][0]\n","                                                                    ',                            \n","                                                                     'activation_62[0][0]']       \n","                                                                                                  \n"," conv2d_73 (Conv2D)          (None, 128, 128, 32)         9216      ['activation_63[0][0]']       \n","                                                                                                  \n"," activation_72 (Activation)  (None, 64, 64, 64)           0         ['add_33[0][0]']              \n","                                                                                                  \n"," activation_80 (Activation)  (None, 32, 32, 128)          0         ['add_37[0][0]']              \n","                                                                                                  \n"," activation_88 (Activation)  (None, 16, 16, 256)          0         ['add_41[0][0]']              \n","                                                                                                  \n"," batch_normalization_73 (Ba  (None, 128, 128, 32)         128       ['conv2d_73[0][0]']           \n"," tchNormalization)                                                                                \n","                                                                                                  \n"," conv2d_82 (Conv2D)          (None, 64, 64, 64)           36864     ['activation_72[0][0]']       \n","                                                                                                  \n"," conv2d_90 (Conv2D)          (None, 32, 32, 128)          147456    ['activation_80[0][0]']       \n","                                                                                                  \n"," conv2d_98 (Conv2D)          (None, 16, 16, 256)          589824    ['activation_88[0][0]']       \n","                                                                                                  \n"," add_29 (Add)                (None, 128, 128, 32)         0         ['batch_normalization_73[0][0]\n","                                                                    ',                            \n","                                                                     'activation_59[0][0]']       \n","                                                                                                  \n"," batch_normalization_82 (Ba  (None, 64, 64, 64)           256       ['conv2d_82[0][0]']           \n"," tchNormalization)                                                                                \n","                                                                                                  \n"," batch_normalization_90 (Ba  (None, 32, 32, 128)          512       ['conv2d_90[0][0]']           \n"," tchNormalization)                                                                                \n","                                                                                                  \n"," batch_normalization_98 (Ba  (None, 16, 16, 256)          1024      ['conv2d_98[0][0]']           \n"," tchNormalization)                                                                                \n","                                                                                                  \n"," activation_64 (Activation)  (None, 128, 128, 32)         0         ['add_29[0][0]']              \n","                                                                                                  \n"," activation_73 (Activation)  (None, 64, 64, 64)           0         ['batch_normalization_82[0][0]\n","                                                                    ']                            \n","                                                                                                  \n"," activation_81 (Activation)  (None, 32, 32, 128)          0         ['batch_normalization_90[0][0]\n","                                                                    ']                            \n","                                                                                                  \n"," activation_89 (Activation)  (None, 16, 16, 256)          0         ['batch_normalization_98[0][0]\n","                                                                    ']                            \n","                                                                                                  \n"," conv2d_74 (Conv2D)          (None, 128, 128, 32)         9216      ['activation_64[0][0]']       \n","                                                                                                  \n"," conv2d_83 (Conv2D)          (None, 64, 64, 64)           36864     ['activation_73[0][0]']       \n","                                                                                                  \n"," conv2d_91 (Conv2D)          (None, 32, 32, 128)          147456    ['activation_81[0][0]']       \n","                                                                                                  \n"," conv2d_99 (Conv2D)          (None, 16, 16, 256)          589824    ['activation_89[0][0]']       \n","                                                                                                  \n"," batch_normalization_74 (Ba  (None, 128, 128, 32)         128       ['conv2d_74[0][0]']           \n"," tchNormalization)                                                                                \n","                                                                                                  \n"," batch_normalization_83 (Ba  (None, 64, 64, 64)           256       ['conv2d_83[0][0]']           \n"," tchNormalization)                                                                                \n","                                                                                                  \n"," batch_normalization_91 (Ba  (None, 32, 32, 128)          512       ['conv2d_91[0][0]']           \n"," tchNormalization)                                                                                \n","                                                                                                  \n"," batch_normalization_99 (Ba  (None, 16, 16, 256)          1024      ['conv2d_99[0][0]']           \n"," tchNormalization)                                                                                \n","                                                                                                  \n"," activation_65 (Activation)  (None, 128, 128, 32)         0         ['batch_normalization_74[0][0]\n","                                                                    ']                            \n","                                                                                                  \n"," add_34 (Add)                (None, 64, 64, 64)           0         ['batch_normalization_83[0][0]\n","                                                                    ',                            \n","                                                                     'activation_72[0][0]']       \n","                                                                                                  \n"," add_38 (Add)                (None, 32, 32, 128)          0         ['batch_normalization_91[0][0]\n","                                                                    ',                            \n","                                                                     'activation_80[0][0]']       \n","                                                                                                  \n"," add_42 (Add)                (None, 16, 16, 256)          0         ['batch_normalization_99[0][0]\n","                                                                    ',                            \n","                                                                     'activation_88[0][0]']       \n","                                                                                                  \n"," conv2d_75 (Conv2D)          (None, 128, 128, 32)         9216      ['activation_65[0][0]']       \n","                                                                                                  \n"," activation_74 (Activation)  (None, 64, 64, 64)           0         ['add_34[0][0]']              \n","                                                                                                  \n"," activation_82 (Activation)  (None, 32, 32, 128)          0         ['add_38[0][0]']              \n","                                                                                                  \n"," activation_90 (Activation)  (None, 16, 16, 256)          0         ['add_42[0][0]']              \n","                                                                                                  \n"," batch_normalization_75 (Ba  (None, 128, 128, 32)         128       ['conv2d_75[0][0]']           \n"," tchNormalization)                                                                                \n","                                                                                                  \n"," conv2d_84 (Conv2D)          (None, 64, 64, 64)           36864     ['activation_74[0][0]']       \n","                                                                                                  \n"," conv2d_92 (Conv2D)          (None, 32, 32, 128)          147456    ['activation_82[0][0]']       \n","                                                                                                  \n"," conv2d_100 (Conv2D)         (None, 16, 16, 256)          589824    ['activation_90[0][0]']       \n","                                                                                                  \n"," add_30 (Add)                (None, 128, 128, 32)         0         ['batch_normalization_75[0][0]\n","                                                                    ',                            \n","                                                                     'activation_64[0][0]']       \n","                                                                                                  \n"," batch_normalization_84 (Ba  (None, 64, 64, 64)           256       ['conv2d_84[0][0]']           \n"," tchNormalization)                                                                                \n","                                                                                                  \n"," batch_normalization_92 (Ba  (None, 32, 32, 128)          512       ['conv2d_92[0][0]']           \n"," tchNormalization)                                                                                \n","                                                                                                  \n"," batch_normalization_100 (B  (None, 16, 16, 256)          1024      ['conv2d_100[0][0]']          \n"," atchNormalization)                                                                               \n","                                                                                                  \n"," activation_66 (Activation)  (None, 128, 128, 32)         0         ['add_30[0][0]']              \n","                                                                                                  \n"," activation_75 (Activation)  (None, 64, 64, 64)           0         ['batch_normalization_84[0][0]\n","                                                                    ']                            \n","                                                                                                  \n"," activation_83 (Activation)  (None, 32, 32, 128)          0         ['batch_normalization_92[0][0]\n","                                                                    ']                            \n","                                                                                                  \n"," activation_91 (Activation)  (None, 16, 16, 256)          0         ['batch_normalization_100[0][0\n","                                                                    ]']                           \n","                                                                                                  \n"," conv2d_76 (Conv2D)          (None, 128, 128, 32)         9216      ['activation_66[0][0]']       \n","                                                                                                  \n"," conv2d_85 (Conv2D)          (None, 64, 64, 64)           36864     ['activation_75[0][0]']       \n","                                                                                                  \n"," conv2d_93 (Conv2D)          (None, 32, 32, 128)          147456    ['activation_83[0][0]']       \n","                                                                                                  \n"," conv2d_101 (Conv2D)         (None, 16, 16, 256)          589824    ['activation_91[0][0]']       \n","                                                                                                  \n"," batch_normalization_76 (Ba  (None, 128, 128, 32)         128       ['conv2d_76[0][0]']           \n"," tchNormalization)                                                                                \n","                                                                                                  \n"," batch_normalization_85 (Ba  (None, 64, 64, 64)           256       ['conv2d_85[0][0]']           \n"," tchNormalization)                                                                                \n","                                                                                                  \n"," batch_normalization_93 (Ba  (None, 32, 32, 128)          512       ['conv2d_93[0][0]']           \n"," tchNormalization)                                                                                \n","                                                                                                  \n"," batch_normalization_101 (B  (None, 16, 16, 256)          1024      ['conv2d_101[0][0]']          \n"," atchNormalization)                                                                               \n","                                                                                                  \n"," activation_67 (Activation)  (None, 128, 128, 32)         0         ['batch_normalization_76[0][0]\n","                                                                    ']                            \n","                                                                                                  \n"," add_35 (Add)                (None, 64, 64, 64)           0         ['batch_normalization_85[0][0]\n","                                                                    ',                            \n","                                                                     'activation_74[0][0]']       \n","                                                                                                  \n"," add_39 (Add)                (None, 32, 32, 128)          0         ['batch_normalization_93[0][0]\n","                                                                    ',                            \n","                                                                     'activation_82[0][0]']       \n","                                                                                                  \n"," add_43 (Add)                (None, 16, 16, 256)          0         ['batch_normalization_101[0][0\n","                                                                    ]',                           \n","                                                                     'activation_90[0][0]']       \n","                                                                                                  \n"," conv2d_77 (Conv2D)          (None, 128, 128, 32)         9216      ['activation_67[0][0]']       \n","                                                                                                  \n"," activation_76 (Activation)  (None, 64, 64, 64)           0         ['add_35[0][0]']              \n","                                                                                                  \n"," activation_84 (Activation)  (None, 32, 32, 128)          0         ['add_39[0][0]']              \n","                                                                                                  \n"," activation_92 (Activation)  (None, 16, 16, 256)          0         ['add_43[0][0]']              \n","                                                                                                  \n"," batch_normalization_77 (Ba  (None, 128, 128, 32)         128       ['conv2d_77[0][0]']           \n"," tchNormalization)                                                                                \n","                                                                                                  \n"," conv2d_86 (Conv2D)          (None, 64, 64, 64)           36864     ['activation_76[0][0]']       \n","                                                                                                  \n"," conv2d_94 (Conv2D)          (None, 32, 32, 128)          147456    ['activation_84[0][0]']       \n","                                                                                                  \n"," conv2d_102 (Conv2D)         (None, 16, 16, 256)          589824    ['activation_92[0][0]']       \n","                                                                                                  \n"," add_31 (Add)                (None, 128, 128, 32)         0         ['batch_normalization_77[0][0]\n","                                                                    ',                            \n","                                                                     'activation_66[0][0]']       \n","                                                                                                  \n"," batch_normalization_86 (Ba  (None, 64, 64, 64)           256       ['conv2d_86[0][0]']           \n"," tchNormalization)                                                                                \n","                                                                                                  \n"," batch_normalization_94 (Ba  (None, 32, 32, 128)          512       ['conv2d_94[0][0]']           \n"," tchNormalization)                                                                                \n","                                                                                                  \n"," batch_normalization_102 (B  (None, 16, 16, 256)          1024      ['conv2d_102[0][0]']          \n"," atchNormalization)                                                                               \n","                                                                                                  \n"," activation_68 (Activation)  (None, 128, 128, 32)         0         ['add_31[0][0]']              \n","                                                                                                  \n"," activation_77 (Activation)  (None, 64, 64, 64)           0         ['batch_normalization_86[0][0]\n","                                                                    ']                            \n","                                                                                                  \n"," activation_85 (Activation)  (None, 32, 32, 128)          0         ['batch_normalization_94[0][0]\n","                                                                    ']                            \n","                                                                                                  \n"," activation_93 (Activation)  (None, 16, 16, 256)          0         ['batch_normalization_102[0][0\n","                                                                    ]']                           \n","                                                                                                  \n"," conv2d_78 (Conv2D)          (None, 128, 128, 32)         9216      ['activation_68[0][0]']       \n","                                                                                                  \n"," conv2d_87 (Conv2D)          (None, 64, 64, 64)           36864     ['activation_77[0][0]']       \n","                                                                                                  \n"," conv2d_95 (Conv2D)          (None, 32, 32, 128)          147456    ['activation_85[0][0]']       \n","                                                                                                  \n"," conv2d_103 (Conv2D)         (None, 16, 16, 256)          589824    ['activation_93[0][0]']       \n","                                                                                                  \n"," batch_normalization_78 (Ba  (None, 128, 128, 32)         128       ['conv2d_78[0][0]']           \n"," tchNormalization)                                                                                \n","                                                                                                  \n"," batch_normalization_87 (Ba  (None, 64, 64, 64)           256       ['conv2d_87[0][0]']           \n"," tchNormalization)                                                                                \n","                                                                                                  \n"," batch_normalization_95 (Ba  (None, 32, 32, 128)          512       ['conv2d_95[0][0]']           \n"," tchNormalization)                                                                                \n","                                                                                                  \n"," batch_normalization_103 (B  (None, 16, 16, 256)          1024      ['conv2d_103[0][0]']          \n"," atchNormalization)                                                                               \n","                                                                                                  \n"," activation_69 (Activation)  (None, 128, 128, 32)         0         ['batch_normalization_78[0][0]\n","                                                                    ']                            \n","                                                                                                  \n"," add_36 (Add)                (None, 64, 64, 64)           0         ['batch_normalization_87[0][0]\n","                                                                    ',                            \n","                                                                     'activation_76[0][0]']       \n","                                                                                                  \n"," add_40 (Add)                (None, 32, 32, 128)          0         ['batch_normalization_95[0][0]\n","                                                                    ',                            \n","                                                                     'activation_84[0][0]']       \n","                                                                                                  \n"," add_44 (Add)                (None, 16, 16, 256)          0         ['batch_normalization_103[0][0\n","                                                                    ]',                           \n","                                                                     'activation_92[0][0]']       \n","                                                                                                  \n"," conv2d_79 (Conv2D)          (None, 128, 128, 32)         9216      ['activation_69[0][0]']       \n","                                                                                                  \n"," activation_78 (Activation)  (None, 64, 64, 64)           0         ['add_36[0][0]']              \n","                                                                                                  \n"," activation_86 (Activation)  (None, 32, 32, 128)          0         ['add_40[0][0]']              \n","                                                                                                  \n"," activation_94 (Activation)  (None, 16, 16, 256)          0         ['add_44[0][0]']              \n","                                                                                                  \n"," batch_normalization_79 (Ba  (None, 128, 128, 32)         128       ['conv2d_79[0][0]']           \n"," tchNormalization)                                                                                \n","                                                                                                  \n"," conv2d_104 (Conv2D)         (None, 64, 64, 32)           2048      ['activation_78[0][0]']       \n","                                                                                                  \n"," conv2d_105 (Conv2D)         (None, 32, 32, 32)           4096      ['activation_86[0][0]']       \n","                                                                                                  \n"," conv2d_106 (Conv2D)         (None, 16, 16, 32)           8192      ['activation_94[0][0]']       \n","                                                                                                  \n"," add_32 (Add)                (None, 128, 128, 32)         0         ['batch_normalization_79[0][0]\n","                                                                    ',                            \n","                                                                     'activation_68[0][0]']       \n","                                                                                                  \n"," batch_normalization_104 (B  (None, 64, 64, 32)           128       ['conv2d_104[0][0]']          \n"," atchNormalization)                                                                               \n","                                                                                                  \n"," batch_normalization_105 (B  (None, 32, 32, 32)           128       ['conv2d_105[0][0]']          \n"," atchNormalization)                                                                               \n","                                                                                                  \n"," batch_normalization_106 (B  (None, 16, 16, 32)           128       ['conv2d_106[0][0]']          \n"," atchNormalization)                                                                               \n","                                                                                                  \n"," activation_70 (Activation)  (None, 128, 128, 32)         0         ['add_32[0][0]']              \n","                                                                                                  \n"," up_sampling2d_4 (UpSamplin  (None, 128, 128, 32)         0         ['batch_normalization_104[0][0\n"," g2D)                                                               ]']                           \n","                                                                                                  \n"," up_sampling2d_5 (UpSamplin  (None, 128, 128, 32)         0         ['batch_normalization_105[0][0\n"," g2D)                                                               ]']                           \n","                                                                                                  \n"," up_sampling2d_6 (UpSamplin  (None, 128, 128, 32)         0         ['batch_normalization_106[0][0\n"," g2D)                                                               ]']                           \n","                                                                                                  \n"," concatenate (Concatenate)   (None, 128, 128, 128)        0         ['activation_70[0][0]',       \n","                                                                     'up_sampling2d_4[0][0]',     \n","                                                                     'up_sampling2d_5[0][0]',     \n","                                                                     'up_sampling2d_6[0][0]']     \n","                                                                                                  \n"," up_sampling2d_7 (UpSamplin  (None, 256, 256, 128)        0         ['concatenate[0][0]']         \n"," g2D)                                                                                             \n","                                                                                                  \n"," conv2d_107 (Conv2D)         (None, 256, 256, 1)          128       ['up_sampling2d_7[0][0]']     \n","                                                                                                  \n"," batch_normalization_107 (B  (None, 256, 256, 1)          4         ['conv2d_107[0][0]']          \n"," atchNormalization)                                                                               \n","                                                                                                  \n"," Classification (Activation  (None, 256, 256, 1)          0         ['batch_normalization_107[0][0\n"," )                                                                  ]']                           \n","                                                                                                  \n","==================================================================================================\n","Total params: 9524036 (36.33 MB)\n","Trainable 
…
