…
1548,"user":{"displayName":"Zachary Luttrell","userId":"00155576860657313600"}},"outputId":"b53f1be9-93a6-4059-f1d0-618fbb26b4dd"},"outputs":[{"output_type":"stream","name":"stdout","text":["Model: \"mevit_model_12\"\n","_________________________________________________________________\n"," Layer (type)                Output Shape              Param #   \n","=================================================================\n"," input_1 (InputLayer)        [(None, 1024, 1024, 3)]   0         \n","                                                                 \n"," conv2d (Conv2D)             (None, 64, 64, 64)        49216     \n","                                                                 \n"," reshape_1 (Reshape)         (None, 4096, 64)          0         \n","                                                                 \n"," transformer_block (Transfo  (None, 4096, 64)          83200     \n"," rmerBlock)                                                      \n","                                                                 \n"," transformer_block_1 (Trans  (None, 4096, 64)          83200     \n"," formerBlock)                                                    \n","                                                                 \n"," transformer_block_2 (Trans  (None, 4096, 64)          83200     \n"," formerBlock)                                                    \n","                                                                 \n"," transformer_block_3 (Trans  (None, 4096, 64)          83200     \n"," formerBlock)                                                    \n","                                                                 \n"," transformer_block_4 (Trans  (None, 4096, 64)          83200     \n"," formerBlock)                                                    \n","                                                                 \n"," transformer_block_5 (Trans  (None, 4096, 64)          83200     \n"," formerBlock)                                                    \n","                                                                 \n"," transformer_block_6 (Trans  (None, 4096, 64)          83200     \n"," formerBlock)                                                    \n","                                                                 \n"," transformer_block_7 (Trans  (None, 4096, 64)          83200     \n"," formerBlock)                                                    \n","                                                                 \n"," reshape_2 (Reshape)         (None, 64, 64, 64)        0         \n","                                                                 \n"," conv2d_transpose (Conv2DTr  (None, 1024, 1024, 1)     16385     \n"," anspose)                                                        \n","                                                                 \n"," activation (Activation)     (None, 1024, 1024, 1)     0         \n","                                                                 \n","=================================================================\n","Total params: 731201 (2.79 MB)\n","Trainable params: 731201 (2.79 MB)\n","Non-trainable params: 0 (0.00 Byte)\n","_________________________________________________________________\n"]}],"source":["from keras.optimizers import SGD\n","from tensorf
…
