…
ry Luttrell","userId":"00155576860657313600"},"user_tz":420},"id":"yOa_BtwAqWNK","outputId":"16623665-f002-4855-f2ae-d38d2b3bcc23"},"outputs":[{"name":"stdout","output_type":"stream","text":["Model: \"mevit_model_7\"\n","_________________________________________________________________\n"," Layer (type)                Output Shape              Param #   \n","=================================================================\n"," input_1 (InputLayer)        [(None, 256, 256, 3)]     0         \n","                                                                 \n"," conv2d (Conv2D)             (None, 16, 16, 64)        49216     \n","                                                                 \n"," reshape_1 (Reshape)         (None, 256, 64)           0         \n","                                                                 \n"," transformer_block (Transfo  (None, 256, 64)           83200     \n"," rmerBlock)                                                      \n","                                                                 \n"," transformer_block_1 (Trans  (None, 256, 64)           83200     \n"," formerBlock)                                                    \n","                                                                 \n"," transformer_block_2 (Trans  (None, 256, 64)           83200     \n"," formerBlock)                                                    \n","                                                                 \n"," transformer_block_3 (Trans  (None, 256, 64)           83200     \n"," formerBlock)                                                    \n","                                                                 \n"," transformer_block_4 (Trans  (None, 256, 64)           83200     \n"," formerBlock)                                                    \n","                                                                 \n"," transformer_block_5 (Trans  (None, 256, 64)           83200     \n"," formerBlock)                                                    \n","                                                                 \n"," transformer_block_6 (Trans  (None, 256, 64)           83200     \n"," formerBlock)                                                    \n","                                                                 \n"," transformer_block_7 (Trans  (None, 256, 64)           83200     \n"," formerBlock)                                                    \n","                                                                 \n"," reshape_2 (Reshape)         (None, 16, 16, 64)        0         \n","                                                                 \n"," conv2d_transpose (Conv2DTr  (None, 256, 256, 1)       16385     \n"," anspose)                                                        \n","                                                                 \n"," activation (Activation)     (None, 256, 256, 1)       0         \n","                                                                 \n","=================================================================\n","Total params: 731201 (2.79 MB)\n","Trainable params: 731201 (2.79 MB)\n","Non-trainable params: 0 (0.00 Byte)\n","_________________________________________________________________\n"]}],"source":["from keras.optimizers import SGD\n","from tensorf
…
