…
ayName":"Zachary Luttrell","userId":"00155576860657313600"}},"outputId":"b7561291-523c-4fe0-dd75-4690e4864a84"},"execution_count":6,"outputs":[{"output_type":"stream","name":"stdout","text":["Model: \"mevit_model_6\"\n","_________________________________________________________________\n"," Layer (type)                Output Shape              Param #   \n","=================================================================\n"," input_1 (InputLayer)        [(None, 256, 256, 3)]     0         \n","                                                                 \n"," conv2d (Conv2D)             (None, 16, 16, 64)        49216     \n","                                                                 \n"," reshape_1 (Reshape)         (None, 256, 64)           0         \n","                                                                 \n"," transformer_block (Transfo  (None, 256, 64)           83200     \n"," rmerBlock)                                                      \n","                                                                 \n"," transformer_block_1 (Trans  (None, 256, 64)           83200     \n"," formerBlock)                                                    \n","                                                                 \n"," transformer_block_2 (Trans  (None, 256, 64)           83200     \n"," formerBlock)                                                    \n","                                                                 \n"," transformer_block_3 (Trans  (None, 256, 64)           83200     \n"," formerBlock)                                                    \n","                                                                 \n"," transformer_block_4 (Trans  (None, 256, 64)           83200     \n"," formerBlock)                                                    \n","                                                                 \n"," transformer_block_5 (Trans  (None, 256, 64)           83200     \n"," formerBlock)                                                    \n","                                                                 \n"," transformer_block_6 (Trans  (None, 256, 64)           83200     \n"," formerBlock)                                                    \n","                                                                 \n"," transformer_block_7 (Trans  (None, 256, 64)           83200     \n"," formerBlock)                                                    \n","                                                                 \n"," reshape_2 (Reshape)         (None, 16, 16, 64)        0         \n","                                                                 \n"," conv2d_transpose (Conv2DTr  (None, 256, 256, 1)       16385     \n"," anspose)                                                        \n","                                                                 \n"," activation (Activation)     (None, 256, 256, 1)       0         \n","                                                                 \n","=================================================================\n","Total params: 731201 (2.79 MB)\n","Trainable params: 731201 (2.79 MB)\n","Non-trainable params: 0 (0.00 Byte)\n","_________________________________________________________________\n"]}]},{"cell_type":"markdown","source":["Model Training"],"metada
…
