…
"displayName":"Zachary Luttrell","userId":"00155576860657313600"}},"outputId":"b424bad2-9996-4fb9-cd8e-1ab85d0c1b85"},"execution_count":6,"outputs":[{"output_type":"stream","name":"stdout","text":["Model: \"model_1\"\n","_________________________________________________________________\n"," Layer (type)                Output Shape              Param #   \n","=================================================================\n"," input_2 (InputLayer)        [(None, 256, 256, 3)]     0         \n","                                                                 \n"," conv2d_1 (Conv2D)           (None, 16, 16, 64)        49216     \n","                                                                 \n"," reshape_4 (Reshape)         (None, 256, 64)           0         \n","                                                                 \n"," transformer_block_8 (Trans  (None, 256, 64)           83200     \n"," formerBlock)                                                    \n","                                                                 \n"," transformer_block_9 (Trans  (None, 256, 64)           83200     \n"," formerBlock)                                                    \n","                                                                 \n"," transformer_block_10 (Tran  (None, 256, 64)           83200     \n"," sformerBlock)                                                   \n","                                                                 \n"," transformer_block_11 (Tran  (None, 256, 64)           83200     \n"," sformerBlock)                                                   \n","                                                                 \n"," transformer_block_12 (Tran  (None, 256, 64)           83200     \n"," sformerBlock)                                                   \n","                                                                 \n"," transformer_block_13 (Tran  (None, 256, 64)           83200     \n"," sformerBlock)                                                   \n","                                                                 \n"," transformer_block_14 (Tran  (None, 256, 64)           83200     \n"," sformerBlock)                                                   \n","                                                                 \n"," transformer_block_15 (Tran  (None, 256, 64)           83200     \n"," sformerBlock)                                                   \n","                                                                 \n"," reshape_5 (Reshape)         (None, 16, 16, 64)        0         \n","                                                                 \n"," conv2d_transpose_1 (Conv2D  (None, 256, 256, 1)       16385     \n"," Transpose)                                                      \n","                                                                 \n"," activation_1 (Activation)   (None, 256, 256, 1)       0         \n","                                                                 \n","=================================================================\n","Total params: 731201 (2.79 MB)\n","Trainable params: 731201 (2.79 MB)\n","Non-trainable params: 0 (0.00 Byte)\n","_________________________________________________________________\n"]}]},{"cell_type":"markdown","source":["Model Training"],"metada
…
