…
yName":"Zachary Luttrell","userId":"00155576860657313600"}},"outputId":"06248c5e-5906-441d-ee7f-8e92ba2d855f"},"execution_count":21,"outputs":[{"output_type":"stream","name":"stdout","text":["Model: \"mevit_model_2\"\n","_________________________________________________________________\n"," Layer (type)                Output Shape              Param #   \n","=================================================================\n"," input_4 (InputLayer)        [(None, 256, 256, 3)]     0         \n","                                                                 \n"," conv2d_3 (Conv2D)           (None, 16, 16, 64)        49216     \n","                                                                 \n"," reshape_10 (Reshape)        (None, 256, 64)           0         \n","                                                                 \n"," transformer_block_24 (Tran  (None, 256, 64)           83200     \n"," sformerBlock)                                                   \n","                                                                 \n"," transformer_block_25 (Tran  (None, 256, 64)           83200     \n"," sformerBlock)                                                   \n","                                                                 \n"," transformer_block_26 (Tran  (None, 256, 64)           83200     \n"," sformerBlock)                                                   \n","                                                                 \n"," transformer_block_27 (Tran  (None, 256, 64)           83200     \n"," sformerBlock)                                                   \n","                                                                 \n"," transformer_block_28 (Tran  (None, 256, 64)           83200     \n"," sformerBlock)                                                   \n","                                                                 \n"," transformer_block_29 (Tran  (None, 256, 64)           83200     \n"," sformerBlock)                                                   \n","                                                                 \n"," transformer_block_30 (Tran  (None, 256, 64)           83200     \n"," sformerBlock)                                                   \n","                                                                 \n"," transformer_block_31 (Tran  (None, 256, 64)           83200     \n"," sformerBlock)                                                   \n","                                                                 \n"," reshape_11 (Reshape)        (None, 16, 16, 64)        0         \n","                                                                 \n"," conv2d_transpose_3 (Conv2D  (None, 256, 256, 1)       16385     \n"," Transpose)                                                      \n","                                                                 \n"," activation_3 (Activation)   (None, 256, 256, 1)       0         \n","                                                                 \n","=================================================================\n","Total params: 731201 (2.79 MB)\n","Trainable params: 731201 (2.79 MB)\n","Non-trainable params: 0 (0.00 Byte)\n","_________________________________________________________________\n"]}]},{"cell_type":"markdown","source":["Model Training"],"metada
…
