…
===============] - 2s 0us/step\n","Model: \"model\"\n","__________________________________________________________________________________________________\n"," Layer (type)                Output Shape                 Param #   Connected to                  \n","==================================================================================================\n"," input_1 (InputLayer)        [(None, 256, 256, 3)]        0         []                            \n","                                                                                                  \n"," block1_conv1 (Conv2D)       (None, 256, 256, 64)         1792      ['input_1[0][0]']             \n","                                                                                                  \n"," block1_conv2 (Conv2D)       (None, 256, 256, 64)         36928     ['block1_conv1[0][0]']        \n","                                                                                                  \n"," block1_pool (MaxPooling2D)  (None, 128, 128, 64)         0         ['block1_conv2[0][0]']        \n","                                                                                                  \n"," block2_conv1 (Conv2D)       (None, 128, 128, 128)        73856     ['block1_pool[0][0]']         \n","                                                                                                  \n"," block2_conv2 (Conv2D)       (None, 128, 128, 128)        147584    ['block2_conv1[0][0]']        \n","                                                                                                  \n"," block2_pool (MaxPooling2D)  (None, 64, 64, 128)          0         ['block2_conv2[0][0]']        \n","                                                                                                  \n"," block3_conv1 (Conv2D)       (None, 64, 64, 256)          295168    ['block2_pool[0][0]']         \n","                                                                                                  \n"," block3_conv2 (Conv2D)       (None, 64, 64, 256)          590080    ['block3_conv1[0][0]']        \n","                                                                                                  \n"," block3_conv3 (Conv2D)       (None, 64, 64, 256)          590080    ['block3_conv2[0][0]']        \n","                                                                                                  \n"," block3_pool (MaxPooling2D)  (None, 32, 32, 256)          0         ['block3_conv3[0][0]']        \n","                                                                                                  \n"," block4_conv1 (Conv2D)       (None, 32, 32, 512)          1180160   ['block3_pool[0][0]']         \n","                                                                                                  \n"," block4_conv2 (Conv2D)       (None, 32, 32, 512)          2359808   ['block4_conv1[0][0]']        \n","                                                                                                  \n"," block4_conv3 (Conv2D)       (None, 32, 32, 512)          2359808   ['block4_conv2[0][0]']        \n","                                                                                                  \n"," block4_pool (MaxPooling2D)  (None, 16, 16, 512)          0         ['block4_conv3[0][0]']        \n","                                                                                                  \n"," block5_conv1 (Conv2D)       (None, 16, 16, 512)          2359808   ['block4_pool[0][0]']         \n","                                                                                                  \n"," block5_conv2 (Conv2D)       (None, 16, 16, 512)          2359808   ['block5_conv1[0][0]']        \n","                                                                                                  \n"," block5_conv3 (Conv2D)       (None, 16, 16, 512)          2359808   ['block5_conv2[0][0]']        \n","                                                                                                  \n"," up_sampling2d (UpSampling2  (None, 32, 32, 512)          0         ['block5_conv3[0][0]']        \n"," D)                                                                                               \n","                                                                                                  \n"," concatenate (Concatenate)   (None, 32, 32, 1024)         0         ['up_sampling2d[0][0]',       \n","                                                                     'block4_conv3[0][0]']        \n","                                                                                                  \n"," conv2d (Conv2D)             (None, 32, 32, 512)          4719104   ['concatenate[0][0]']         \n","                                                                                                  \n"," up_sampling2d_1 (UpSamplin  (None, 64, 64, 512)          0         ['conv2d[0][0]']              \n"," g2D)                                                                                             \n","                                                                                                  \n"," concatenate_1 (Concatenate  (None, 64, 64, 768)          0         ['up_sampling2d_1[0][0]',     \n"," )                                                                   'block3_conv3[0][0]']        \n","                                                                                                  \n"," conv2d_1 (Conv2D)           (None, 64, 64, 256)          1769728   ['concatenate_1[0][0]']       \n","                                                                                                  \n"," up_sampling2d_2 (UpSamplin  (None, 128, 128, 256)        0         ['conv2d_1[0][0]']            \n"," g2D)                                                                                             \n","                                                                                                  \n"," concatenate_2 (Concatenate  (None, 128, 128, 384)        0         ['up_sampling2d_2[0][0]',     \n"," )                                                                   'block2_conv2[0][0]']        \n","                                                                                                  \n"," conv2d_2 (Conv2D)           (None, 128, 128, 128)        442496    ['concatenate_2[0][0]']       \n","                                                                                                  \n"," up_sampling2d_3 (UpSamplin  (None, 256, 256, 128)        0         ['conv2d_2[0][0]']            \n"," g2D)                                                                                             \n","                                                                                                  \n"," concatenate_3 (Concatenate  (None, 256, 256, 192)        0         ['up_sampling2d_3[0][0]',     \n"," )                                                                   'block1_conv2[0][0]']        \n","                                                                                                  \n"," conv2d_3 (Conv2D)           (None, 256, 256, 64)         110656    ['concatenate_3[0][0]']       \n","                                                                                                  \n"," conv2d_4 (Conv2D)           (None, 256, 256, 1)          65        ['conv2d_3[0][0]']            \n","                                                                                                  \n","==================================================================================================\n","Total params: 21756737 (83.00 MB)\n","Trainable params: 7042049 (26.86 MB)\n","Non-trainable params: 14714688 (56.13 MB)\n","__________________________
…
